tmp/lite-mono_640x192/depth.pth (torch, 934819 bytes, 81 tensors)

total_ops f8 [1]
0	0x0000000000000000	0.0

total_params f8 [1]
0	0x0000000000000000	0.0

decoder.total_ops f8 [1]
0	0x0000000000000000	0.0

decoder.total_params f8 [1]
0	0x0000000000000000	0.0

decoder.0.total_ops f8 [1]
0	0x0000000000000000	0.0

decoder.0.total_params f8 [1]
0	0x0000000000000000	0.0

decoder.0.conv.total_ops f8 [1]
0	0x0000000000000000	0.0

decoder.0.conv.total_params f8 [1]
0	0x0000000000000000	0.0

decoder.0.conv.pad.total_ops f8 [1]
0	0x0000000000000000	0.0

decoder.0.conv.pad.total_params f8 [1]
0	0x0000000000000000	0.0

decoder.0.conv.conv.weight f4 [64, 128, 3, 3]
0	0xbab1e3d8	-0.0013571931
1	0xbd760ba2	-0.060069688
2	0x3bacd52d	0.005274436
3	0x3c2bc77c	0.0104845725
4	0xbb836548	-0.0040098764
5	0x3c2557cd	0.010091734
6	0x3d075cd8	0.033047527
7	0x3c9507b5	0.018192152
8	0xbaac0acf	-0.001312578
9	0x3bdf842d	0.0068211765
10	0x3c345641	0.011006893
11	0x3a316f6f	0.0006768619
12	0xbc044b4e	-0.008074595
13	0xbc88b54b	-0.01668801
14	0x3c9f138b	0.019418499
15	0x3d0bdd5d	0.034146655
16	0x3c90465c	0.017611675
17	0x3c7c73c4	0.01540846
18	0xbce477d2	-0.027889166
19	0xbd14ac07	-0.03629687
20	0xbb670917	-0.003525322
21	0x3c8600af	0.016357748
22	0x3cff7828	0.031185225
23	0xba7349e1	-0.0009280723
24	0xbccf17c7	-0.025279893
25	0x3d4ada7b	0.049524765
26	0x3c4c82a6	0.012482321
27	0x3c303c0c	0.010756504
28	0xbc5cf5fa	-0.01348638
29	0x3c2ed273	0.010670292
30	0xbb0e2bc5	-0.002169357
31	0x3c39bc5b	0.011336411
32	0xbb97d6c7	-0.0046337578
33	0x3bb561c9	0.0055353385
34	0x3d4d2e30	0.050092876
35	0xbc5b1f9e	-0.013374237
36	0xbc8dbaab	-0.017300924
37	0x3c21564e	0.009847237
38	0xbc9e66ba	-0.019336093
39	0xbb22e441	-0.0024855288
40	0xbc40c531	-0.011765764
41	0xbc424406	-0.011857038
42	0xbc8049a6	-0.015660118
43	0xbbd89016	-0.0066089733
44	0xbd1785f1	-0.03699297
45	0x3c430596	0.011903187
46	0xbaf53119	-0.0018706649
47	0x3cd2bc15	0.02572445
48	0x3ce90228	0.028443411
49	0x3c33bb78	0.010969989
50	0x3d11cc3c	0.035595164
51	0xbcdc56af	-0.026896803
52	0xbd01e3f4	-0.031711534
53	0xbd1d92e4	-0.038470164
54	0x3c01266f	0.007882698
55	0xbbbb76d7	-0.005720954
56	0x3bcae6ac	0.006192049
57	0xbbd1a934	-0.0063983444
58	0x3bdb71ed	0.0066969306
59	0x3c7b910f	0.015354409
60	0x3c17cdbb	0.009265359
61	0xbca1a634	-0.019732572
62	0xbbd4a96e	-0.006489924
63	0x3c8b9ae8	0.017041638
64	0x3c7e1262	0.0155073125
65	0x3d27b521	0.040944222
66	0xbb2648f0	-0.0025373064
67	0x3d3300db	0.043701988
68	0xbba0102c	-0.0048847403
69	0xbd22cebe	-0.039747946
70	0xbcd4faff	-0.02599859
71	0xbcf9fd7a	-0.030516375
72	0x3b840311	0.004028686
73	0x3c651cac	0.013983887
74	0x3c6e38ba	0.014539892
75	0x3b23f76b	0.0025019299
76	0x3ce7e48b	0.02830722
77	0xbc286f62	-0.010280462
78	0x3bf287c7	0.00740144
79	0x3d11c9f7	0.035593
80	0xbb94c188	-0.0045396723
81	0x3c1446d1	0.009050087
82	0xbcc4198a	-0.02393796
83	0xbc2bc516	-0.010484001
84	0xbb1e08cf	-0.0024114137
85	0xbbe167ff	-0.0068788524
86	0xbd29a4a5	-0.041416783
87	0x3ca11f50	0.019668251
88	0xbd121e16	-0.035673223
89	0x3c4ab642	0.012372555
90	0x3cd9318a	0.02651288
91	0x3c6000f0	0.0136720985
92	0xbaeab49a	-0.0017906607
93	0x3c1f6d5f	0.009730666
94	0x3c790689	0.015199312
95	0xbc2a2e07	-0.01038695
96	0x3c18f0f3	0.0093347905
97	0xbced911c	-0.028999858
98	0x3cd20545	0.025637278
99	0x3cdda280	0.027055025
100	0x3d7d17f9	0.06179044
101	0x3c99f4a0	0.018793404
102	0xbd4b9954	-0.049706772
103	0x3cce1d6a	0.02516051
104	0xbcfe2e52	-0.031027947
105	0xbc85ef25	-0.016349385
106	0xbc759376	-0.014988771
107	0xbc91f1a5	-0.01781542
108	0xbc2dd56b	-0.010609965
109	0x3ccaefe9	0.024772601
110	0x3c5eeb05	0.013605838
111	0x3c38d2c1	0.011280716
112	0x3d3258d1	0.043541733
113	0xbc8ba8f1	-0.017048331
114	0xbcab436e	-0.020906176
115	0xbcc60b10	-0.024175197
116	0xbb64405d	-0.0034828403
117	0xbaea3dca	-0.0017871198
118	0xbc8b9304	-0.017037876
119	0xbc56df99	-0.013114833
120	0xbce4d791	-0.027934821
121	0xbd9e6dea	-0.07735808
122	0xbd16a559	-0.03677878
123	0x3c39c437	0.011338285
124	0xbc54993a	-0.012975985
125	0x3c95c9c7	0.018284691
126	0xbc0a474f	-0.008439853
127	0x3c4ec36c	0.012619834
128	0xbd02ead5	-0.031962235
129	0xbcf89a24	-0.030346937
130	0xbcab0d1c	-0.020880274
131	0xbcc8cca9	-0.024511652
132	0xbd2ed290	-0.042681277
133	0xbd3fe07d	-0.046844948
134	0xbcfaef30	-0.030631632
135	0xbcc3d6ed	-0.023906196
136	0x3c0971d4	0.008388955
137	0xbc8cfa7c	-0.017209284
138	0xba8e9eed	-0.0010881104
139	0xbcff9399	-0.03119831
140	0x3be8d778	0.007105764
141	0x3d02825c	0.0318626
142	0x3cb7e915	0.02245001
143	0x3d006c90	0.031353533
144	0x3c7101d5	0.014709909
145	0xbc368f39	-0.011142545
146	0xbc4c1cff	-0.012458085
147	0x3a563e4e	0.0008172736
148	0x3c461be5	0.0120916115
149	0xbb76e26c	-0.003767158
150	0xbd3f652b	-0.04672734
151	0xbce796af	-0.028270094
152	0xbd6d163e	-0.05788254
153	0x3c955ecc	0.01823368
154	0x3dafbae2	0.08580567
155	0x3d137cb3	0.036007594
156	0xbd034ff3	-0.032058667
157	0xbc60f1d1	-0.0137295285
158	0xbd2599da	-0.040429927
159	0xbccfb688	-0.025355592
160	0xbc44c398	-0.012009524
161	0xbd34eba5	-0.04417004
162	0x3c5ab688	0.013349183
163	0xbbb89f84	-0.00563425
164	0x3cc9f7c0	0.02465427
165	0x3c313964	0.010816906
166	0xbcc2489d	-0.023716265
167	0xbc6a52e2	-0.014301987
168	0x3c3e3944	0.011610333
169	0xbd3a4bb4	-0.045482352
170	0xbc5f0d4d	-0.013614011
171	0xbb337771	-0.0027384425
172	0x3c1df49d	0.00964084
173	0xb80958fd	-3.2746222e-05
174	0xbce902cc	-0.028443716
175	0x3c8fbf77	0.017547352
176	0xbd0ca2e7	-0.034335043
177	0x3cac99f2	0.0210695
178	0xb94cdf94	-0.00019538245
179	0xbcaca182	-0.021073107
180	0x3a6ef328	0.00091152126
181	0x3ca4ef31	0.020133587
182	0x3aedc51b	0.0018140407
183	0xbd4f3391	-0.050586287
184	0xbcc6abbc	-0.024251811
185	0xbd79fac7	-0.061030176
186	0xbc8dd66a	-0.017314155
187	0xbc12a719	-0.008950972
188	0xbca4012b	-0.020020088
189	0x3bc5b6b5	0.0060337433
190	0x3ceb3555	0.028711954
191	0x3bdb6e6f	0.0066965143
192	0x3be991f0	0.007127993
193	0x3c0ff470	0.008786306
194	0x3aba9358	0.0014234586
195	0x3cd065e5	0.025439212
196	0x3d72a345	0.059237737
197	0x3cb3eb24	0.02196271
198	0x3af0c698	0.0018369732
199	0x3c702c84	0.014659051
200	0xbd209ad5	-0.03921016
201	0xbc6d8ce2	-0.014498921
202	0x3d2ebfff	0.04266357
203	0x3c5ad814	0.013357181
204	0xbc221c73	-0.009894478
205	0xbd64bb76	-0.05584284
206	0xbd2ad056	-0.04170259
207	0x3ca7faaa	0.020505268
208	0x3c8a1ce8	0.016859487
209	0x3b30e712	0.0026993197
210	0x3c1c0c8b	0.009524475
211	0xbc1f329d	-0.009716657
212	0xbc7d6f96	-0.015468499
213	0xbc6dc82e	-0.014513059
214	0xbc836215	-0.01603798
215	0xbc3638a6	-0.0111219045
216	0xbc93f78a	-0.018062372
217	0xbdc85f16	-0.09783761
218	0xbd130b70	-0.03589958
219	0x3b9e0420	0.004822269
220	0xbc8ff975	-0.017575005
221	0xbce12622	-0.027484003
222	0x3b80c8b9	0.003930178
223	0xbd5448f0	-0.05182737
224	0x3c1f69c6	0.009729808
225	0xbc8ac234	-0.016938306
226	0xbc718345	-0.01474077
227	0xbb00e825	-0.001966962
228	0xbb60a770	-0.0034279488
229	0xbc89a5af	-0.016802637
230	0x3c26f80e	0.010190977
231	0xbca88cf6	-0.020575028
232	0x3b2059f5	0.002446768
233	0xbaa8ba62	-0.0012872929
234	0x3c407ece	0.011748983
235	0x3d8bc5e8	0.06824857
236	0x3c066d7d	0.008204815
237	0xbd32a7da	-0.043617107
238	0x3d4d7cb1	0.050167743
239	0x3cb86ac4	0.022511847
240	0xbc972cbc	-0.018453948
241	0x3b3bb162	0.0028639664
242	0xbca244d3	-0.019808209
243	0xbd1a2a40	-0.03763795
244	0xbcd1c561	-0.025606813
245	0xbd919223	-0.071079515
246	0x39eddf6e	0.0004537063
247	0xbd0591bc	-0.032609686
248	0xbd036a8b	-0.03208403
249	0x3d61c019	0.05511484
250	0x3cb30347	0.021852149
251	0x3ce5787f	0.028011559
252	0xba620b7c	-0.0008622927
253	0xbc73914c	-0.014866184
254	0xbb494a97	-0.0030714625
255	0xbca929ae	-0.020649757

decoder.0.conv.conv.bias f4 [64]
0	0xbb46b8cc	-0.003032255
1	0xbc96f157	-0.018425627
2	0x3c9c93af	0.01911339
3	0x3caaa0c5	0.020828614
4	0xbb836b6f	-0.00401061
5	0x3c24e0c5	0.010063355
6	0xbcc307f1	-0.023807498
7	0xbc51bfce	-0.012802077
8	0xbc2b50bc	-0.01045626
9	0xbd6e5a61	-0.05819166
10	0xbc8e935c	-0.01740425
11	0x3aaadf52	0.0013036525
12	0xbc82cced	-0.015966857
13	0x3b758108	0.0037460942
14	0xbb2a9933	-0.0026031255
15	0xbd26ea70	-0.04075092
16	0xbcf56484	-0.029955156
17	0xbc8a1837	-0.01685725
18	0x39d729b0	0.00041039055
19	0x3c087ecb	0.008331011
20	0xbd0f2cc2	-0.034954794
21	0xbcc5d930	-0.024151415
22	0xbbe3ba68	-0.0069497116
23	0xbc137a48	-0.009001322
24	0xbbd3c42b	-0.006462594
25	0x3c8196ba	0.015818942
26	0xbcd4de0e	-0.02598479
27	0xbc778ca3	-0.015109214
28	0xbc0e5375	-0.00868689
29	0x3d1916ec	0.037375376
30	0x3c490a89	0.012270578
31	0xbc4b1652	-0.012395458
32	0xbc455b38	-0.012045674
33	0x3c959d67	0.018263532
34	0xbd1c21b5	-0.038118083
35	0xbcea158a	-0.028574724
36	0xbaaa3f5e	-0.0012988856
37	0x3c48b94c	0.0122512095
38	0x3c7d8cf4	0.0154755
39	0x3cdff691	0.027339252
40	0xbc54cf0b	-0.012988816
41	0xbc8a214c	-0.01686158
42	0xbc9e5dff	-0.01933193
43	0xbd2c6a4b	-0.042093556
44	0xbc78b354	-0.015179474
45	0xbc13a7fe	-0.00901222
46	0x3bb4823c	0.005508689
47	0xbd85e4d6	-0.065377876
48	0xbd38aa48	-0.045084268
49	0xbbb1d287	-0.005426708
50	0xbc468259	-0.012116038
51	0xbb1189a0	-0.0022207275
52	0x3d004941	0.03131986
53	0xbcfe5766	-0.031047534
54	0x3cc77a1d	0.02435022
55	0xbc8a3c06	-0.016874325
56	0xbc9d0f03	-0.019172197
57	0xbc9d7082	-0.019218687
58	0x3bfd8a14	0.0077374075
59	0x3b5cd2e6	0.0033695041
60	0xbc9ca77e	-0.019122835
61	0x3cbc9e39	0.023024665
62	0xbc5affb9	-0.013366633
63	0xbc893d03	-0.016752725

decoder.0.nonlin.total_ops f8 [1]
0	0x0000000000000000	0.0

decoder.0.nonlin.total_params f8 [1]
0	0x0000000000000000	0.0

decoder.1.total_ops f8 [1]
0	0x0000000000000000	0.0

decoder.1.total_params f8 [1]
0	0x0000000000000000	0.0

decoder.1.conv.total_ops f8 [1]
0	0x0000000000000000	0.0

decoder.1.conv.total_params f8 [1]
0	0x0000000000000000	0.0

decoder.1.conv.pad.total_ops f8 [1]
0	0x0000000000000000	0.0

decoder.1.conv.pad.total_params f8 [1]
0	0x0000000000000000	0.0

decoder.1.conv.conv.weight f4 [64, 144, 3, 3]
0	0x3a85644c	0.0010176986
1	0x3af4570d	0.0018641666
2	0xbc14ce3a	-0.009082371
3	0xbc5d5283	-0.013508442
4	0x3cbbde28	0.02293308
5	0xbc6c731e	-0.014431743
6	0x3b4ba40e	0.0031073126
7	0xbcf494f4	-0.029856183
8	0xbd111fa8	-0.03543058
9	0xba953db7	-0.001138619
10	0x3bdbe9cf	0.0067112218
11	0x3c55d22e	0.013050599
12	0x3cda8b99	0.026677893
13	0xbcff5598	-0.031168744
14	0xbc14b25b	-0.009075726
15	0xbbcfa78c	-0.006337112
16	0xbca5c259	-0.020234274
17	0xbd16b70b	-0.036795657
18	0xbba46e79	-0.005018052
19	0xbbe5c583	-0.0070120706
20	0xbd20e0e7	-0.039276984
21	0xba0791fd	-0.0005171595
22	0x3c755f6f	0.014976366
23	0x3c6cdf05	0.014457469
24	0xbbd5c3c0	-0.0065235794
25	0xbc44c697	-0.012010238
26	0xbba7bd58	-0.005119007
27	0xbc8cb56e	-0.017176356
28	0x3ce851cc	0.028359316
29	0xbd4f76d7	-0.050650444
30	0xbc4ac158	-0.012375198
31	0xbb8893a7	-0.004167992
32	0xbd0e881b	-0.03479777
33	0xbc751138	-0.014957719
34	0xbd368815	-0.04456337
35	0x3bcef191	0.006315418
36	0xbc8ee82e	-0.017444696
37	0xbd02e602	-0.031957634
38	0xba6b95cd	-0.00089868606
39	0x3ccb59f9	0.024823176
40	0x3c7dcbad	0.015490455
41	0x3c0bbb66	0.008528566
42	0xbc1fe539	-0.009759241
43	0xba015263	-0.0004933236
44	0xbc07b531	-0.0082829455
45	0x3cdf0dd6	0.027228277
46	0x3c08215c	0.008308735
47	0xbc8e4e0b	-0.017371198
48	0x3b951586	0.004549685
49	0xbb79bbd5	-0.0038106341
50	0xbc9e3901	-0.019314291
51	0xbbaf18fa	-0.0053435536
52	0x3ca3a301	0.019975187
53	0xbd28d03f	-0.041214224
54	0x3b175586	0.0023091747
55	0x3caa4577	0.020785077
56	0x3be9229f	0.007114723
57	0xbb603b8c	-0.003421518
58	0xbcb8c1b7	-0.022553308
59	0xbc99b025	-0.01876075
60	0x3c9952ab	0.018716177
61	0x3c1ff503	0.009763005
62	0x3ce0ad74	0.027426459
63	0xbc499673	-0.012303936
64	0x3ce0a4fa	0.027422417
65	0x3c0f6b0f	0.008753552
66	0xbc38200f	-0.011238112
67	0xbcc4deba	-0.024031986
68	0xbcbdd7be	-0.023174163
69	0xbc66466d	-0.014054877
70	0xbc3d980f	-0.011571898
71	0x3b7ac1ec	0.003826256
72	0x3ccf08a2	0.025272671
73	0xbb7f53d0	-0.0038959868
74	0x3ba1f2ad	0.0049422593
75	0x3c8278dd	0.015926773
76	0x3c8ac48f	0.01693943
77	0xbc040d09	-0.008059748
78	0xba7b2b66	-0.0009581357
79	0xbd002312	-0.031283446
80	0xbcaf138b	-0.021371624
81	0xbc36d603	-0.011159423
82	0xbba3398e	-0.0049812263
83	0xbb9d9546	-0.0048090545
84	0x3bc678de	0.006056889
85	0xbd135d7e	-0.035977833
86	0xbc8ab544	-0.016932137
87	0xbc543243	-0.012951436
88	0x3c782ef4	0.015147913
89	0xbd389362	-0.04506243
90	0x3c391e02	0.011298658
91	0x3c9ee6d2	0.019397173
92	0xbc8c02ae	-0.017091122
93	0x3b9aa9c6	0.0047199456
94	0x3b16ca55	0.0023008783
95	0xbb64264a	-0.003481286
96	0xba85f475	-0.0010219949
97	0xbc7b25a4	-0.015328798
98	0xbd5ceb4d	-0.053935338
99	0x3c200c15	0.009768506
100	0xbb0df0f3	-0.002165851
101	0x3c34236c	0.010994773
102	0xbb81a0d8	-0.0039559416
103	0xbb47a889	-0.0030465445
104	0x3caf9895	0.021435061
105	0x3b21130f	0.002457801
106	0xbb5bbebc	-0.0033530435
107	0xbce656a7	-0.028117491
108	0x3cfdfad3	0.031003391
109	0x3c404cf7	0.0117371
110	0x3d324b75	0.043528993
111	0xbb8ec379	-0.0043567983
112	0xbd059203	-0.03260995
113	0xbcd5a0ac	-0.02607759
114	0xbd09f902	-0.033684738
115	0x3bfd08c0	0.0077219903
116	0xbccadfe9	-0.024764972
117	0x3b8d29ec	0.004307976
118	0x3ccb8bfe	0.024847027
119	0xbc35c342	-0.011093916
120	0xbaeea1da	-0.0018206195
121	0x3bbb77a0	0.0057210475
122	0x3cc59896	0.02412061
123	0xbc963a89	-0.018338459
124	0x3c25d85e	0.010122387
125	0xbb7f425f	-0.0038949472
126	0xbd258982	-0.04041434
127	0xbc69b466	-0.014264202
128	0xbc38bc57	-0.0112753725
129	0x3c349356	0.011021456
130	0x3d024768	0.03180638
131	0x3c5f942e	0.013646169
132	0xbc3eef21	-0.011653692
133	0x3cae3a44	0.021268018
134	0x3b516b08	0.0031954665
135	0xbbbc7b0a	-0.005751972
136	0x3c2bd4b2	0.010487722
137	0x3ceb43b8	0.028718814
138	0xbd4cbca0	-0.049984574
139	0x3be10b79	0.0068678227
140	0xbbfb0989	-0.007661049
141	0xbab9ac26	-0.0014165684
142	0xbccc0feb	-0.024909934
143	0x3c2d28ff	0.010568856
144	0x3c0afcd8	0.008483134
145	0xbbc72fca	-0.006078695
146	0x3bf2c57c	0.007408796
147	0x3c021627	0.007939852
148	0xbd6197c1	-0.055076364
149	0x3c887835	0.016658882
150	0x3d0bf7f5	0.034172017
151	0xbbe0c526	-0.0068594394
152	0xbb12192f	-0.0022292843
153	0xbc0277e0	-0.007963151
154	0x3d03d96a	0.032189764
155	0xbd3c2ce6	-0.045941256
156	0xbb13c054	-0.0022545056
157	0x3c8f90b1	0.017525049
158	0xbba9ce91	-0.0051820953
159	0xbd55045b	-0.052006107
160	0xbc48997b	-0.012243624
161	0xbc3bc9fd	-0.011461732
162	0xbcee0b86	-0.02905823
163	0xbc8741e8	-0.016510919
164	0xbd5e9c3e	-0.054348223
165	0x3cf454c8	0.029825583
166	0x3c43d5fb	0.011952872
167	0xbcf55b76	-0.029950839
168	0xbc4185c3	-0.011811676
169	0xbc1b88f5	-0.009493102
170	0xbcd8db81	-0.026471855
171	0x3c9d67a9	0.019214468
172	0xbc46b1ec	-0.012127381
173	0x3cb5ea8a	0.022206564
174	0x3c079ece	0.008277608
175	0xb9a2f86e	-0.00031084142
176	0xbc8fe3b0	-0.017564625
177	0xbc9600d6	-0.018310945
178	0xbcbecfe4	-0.02329249
179	0x3b9c87c7	0.004776928
180	0x3befcffe	0.007318496
181	0x3b5c280f	0.0033593213
182	0x3b78b606	0.0037950291
183	0xbc2e11a4	-0.010624323
184	0x3ba09def	0.0049016397
185	0xbc1910ce	-0.009342385
186	0xbb0f2b28	-0.0021845791
187	0x3c3da1c0	0.011574209
188	0x3c82943a	0.01593982
189	0xbd176231	-0.036958877
190	0x3ce90c24	0.028448172
191	0xbc196f9d	-0.00936499
192	0xbc81e34e	-0.015855458
193	0x3c496502	0.012292149
194	0xbc8f4042	-0.017486695
195	0xbc619f1e	-0.013770847
196	0x3ca83f7e	0.020538088
197	0x3c005fd1	0.007835344
198	0x3b76750e	0.003760639
199	0xbd543841	-0.05181146
200	0x3d00d7a5	0.031455655
201	0xbc9a65eb	-0.018847426
202	0xbb8c6608	-0.004284624
203	0xbcff0e82	-0.031134848
204	0x3c972b43	0.018453246
205	0x3a32ceb2	0.0006820961
206	0xbd14a73d	-0.036292303
207	0x3cc57324	0.024102755
208	0xbc716912	-0.014734523
209	0xbc8fa289	-0.017533557
210	0xbd0f70cd	-0.035019685
211	0xbd1109f6	-0.03540989
212	0xbc269926	-0.010168349
213	0xbd032e8b	-0.03202681
214	0x3c135c39	0.008994156
215	0x3b6f29b9	0.0036493375
216	0xbd0b313c	-0.0339825
217	0xbd4a8daf	-0.049451526
218	0xbcac2543	-0.021013862
219	0xbbdca3c9	-0.006733392
220	0x3cdf983e	0.027294274
221	0x3c4ee2a7	0.01262728
222	0xbb778887	-0.0037770586
223	0xbcabf63f	-0.020991443
224	0x3cbb2d8a	0.022848863
225	0xbbc9e340	-0.0061611235
226	0xbba20c35	-0.004945303
227	0xbc37bb2a	-0.011214057
228	0xbc7aded0	-0.015311912
229	0x3bf2d241	0.007410318
230	0xbc58f2f2	-0.013241516
231	0x3c70f368	0.01470647
232	0x3c995af3	0.018720126
233	0xbcfb84b0	-0.030702919
234	0x3cd64922	0.02615792
235	0xbbff382e	-0.0077886796
236	0x3ad7c542	0.0016461986
237	0xbbb33054	-0.0054684076
238	0xbc388921	-0.011263163
239	0x3c2b6e4b	0.010463308
240	0xbc87ea1b	-0.016591122
241	0xbcda9553	-0.026682531
242	0xbb8ab3c9	-0.004232858
243	0x3c99bd4f	0.018767027
244	0xbbd19d9d	-0.006396963
245	0x3cd1ba66	0.025601577
246	0xbc4c04e9	-0.012452343
247	0xbc9d8dc5	-0.01923264
248	0x3c0751a0	0.008259207
249	0xbccad001	-0.024757387
250	0xbc563ac4	-0.013075534
251	0xbc48614b	-0.012230228
252	0xbcbcf543	-0.023066169
253	0xbd0150a3	-0.03157104
254	0x3c55c933	0.013048458
255	0xba217c91	-0.00061602244

decoder.1.conv.conv.bias f4 [64]
0	0xbc998095	-0.01873807
1	0xbd19a9af	-0.03751534
2	0xbce6c341	-0.028169276
3	0x3c80d61b	0.015727093
4	0xbd09f032	-0.033676334
5	0x3c4ae1c3	0.012382927
6	0x3c9a854d	0.01886239
7	0xbcb34c73	-0.02188704
8	0x3cc45be8	0.023969606
9	0x3c1d689e	0.009607462
10	0xbc90c319	-0.017671155
11	0x3c98d5e4	0.018656678
12	0xbd6ea8d9	-0.058266494
13	0xbcdc25a9	-0.026873427
14	0xbcb02dad	-0.021506155
15	0x3d2ed2c5	0.042681474
16	0x3c8a2843	0.016864901
17	0xbc1fc978	-0.009752624
18	0xbc9dce92	-0.01926354
19	0xbcfd48fe	-0.030918594
20	0xba5494ec	-0.00081093493
21	0xbcfcaf83	-0.03084541
22	0xbbbd874a	-0.00578395
23	0xbcd371c3	-0.025811082
24	0x3c66c890	0.014085904
25	0xbd06eea6	-0.032942437
26	0xbbfd1fdf	-0.0077247466
27	0x3bda282a	0.00665762
28	0x3c7b909c	0.015354302
29	0xbb55abf9	-0.0032603724
30	0xbbe1733b	-0.0068801916
31	0x3bdf127c	0.0068076234
32	0xbc90b8eb	-0.0176663
33	0xbb9796bb	-0.004626123
34	0xbcbf9c56	-0.023389976
35	0xbcf03cc5	-0.029325852
36	0xbab7ca5e	-0.0014022102
37	0xbcaaee01	-0.020865442
38	0xbd53463d	-0.051580656
39	0xbd3c658d	-0.045995284
40	0xbca99fbc	-0.02070605
41	0xbca793d0	-0.020456225
42	0xb9891f45	-0.00026153974
43	0x3c3a4e05	0.01137114
44	0x3c938ace	0.018010523
45	0xbd171031	-0.036880676
46	0xbbb3bc00	-0.005485058
47	0xbc8f6cd2	-0.017507944
48	0xbdb8e3a8	-0.09027797
49	0xbc2080b9	-0.009796315
50	0x3af2a2b9	0.001851163
51	0xbc97c584	-0.0185268
52	0xbc2b35d5	-0.010449846
53	0xbb1574c5	-0.0022805196
54	0xbbd76e6a	-0.0065744417
55	0xbc71e3ab	-0.014763753
56	0xbb9a8369	-0.0047153723
57	0xbd17a1ff	-0.037019726
58	0xbc4cc07a	-0.012497062
59	0xbb3ec012	-0.0029106182
60	0x3b69c32f	0.0035669317
61	0xbcb2482f	-0.021762935
62	0xbbd62eae	-0.0065363264
63	0xbca06f56	-0.01958434

decoder.1.nonlin.total_ops f8 [1]
0	0x0000000000000000	0.0

decoder.1.nonlin.total_params f8 [1]
0	0x0000000000000000	0.0

decoder.2.total_ops f8 [1]
0	0x0000000000000000	0.0

decoder.2.total_params f8 [1]
0	0x0000000000000000	0.0

decoder.2.conv.total_ops f8 [1]
0	0x0000000000000000	0.0

decoder.2.conv.total_params f8 [1]
0	0x0000000000000000	0.0

decoder.2.conv.pad.total_ops f8 [1]
0	0x0000000000000000	0.0

decoder.2.conv.pad.total_params f8 [1]
0	0x0000000000000000	0.0

decoder.2.conv.conv.weight f4 [40, 64, 3, 3]
0	0x3c512379	0.012764805
1	0x3d12071f	0.035651322
2	0x3ab16532	0.0013534187
3	0xbc777c2a	-0.015105287
4	0xbcd0e14d	-0.025498057
5	0xbc44306a	-0.011974433
6	0x3ce917a5	0.028453657
7	0xbb9e4144	-0.0048295576
8	0x3b97cdd0	0.004632689
9	0x3bd8c50b	0.006615286
10	0x3d37d07e	0.044876568
11	0x3bbec688	0.0058220066
12	0x3cc10e96	0.023566525
13	0x3c5aa99c	0.013346102
14	0x3c50953e	0.012730895
15	0x3c30862e	0.010774178
16	0xbbcc80c7	-0.0062409374
17	0xbc59574c	-0.013265442
18	0x3d2db7f4	0.04241176
19	0x3d40e4be	0.047093146
20	0x3c5abbd8	0.0133504495
21	0x3cc1bf4d	0.02365079
22	0x3cc3d12c	0.023903452
23	0x3b2381d9	0.0024949221
24	0xbc632017	-0.013862631
25	0x3a4d39bc	0.00078287325
26	0xbd2c38c4	-0.042046323
27	0x3c4f762b	0.012662451
28	0x3c150230	0.00909476
29	0xbc73e4ee	-0.014886124
30	0xbb91b771	-0.0044469167
31	0xbd22e9e4	-0.039773837
32	0xbbbc769f	-0.0057514454
33	0x3ce94980	0.02847743
34	0xbc68db2f	-0.014212414
35	0x3c389fa8	0.011268534
36	0xbd12e198	-0.035859674
37	0xbd68ddd8	-0.05685219
38	0xbd88a288	-0.066716254
39	0xbcd81462	-0.026376907
40	0x3a183f82	0.0005807803
41	0xbbdfa6bf	-0.0068252976
42	0x3b332999	0.0027338027
43	0xbc9732c1	-0.018456819
44	0x3cffc9c6	0.031224143
45	0xbd21d3f1	-0.039508764
46	0xbd1f09b3	-0.03882761
47	0xbc961023	-0.018318241
48	0x3c0dcc24	0.008654628
49	0x3c9e0399	0.019288825
50	0x3cce5e85	0.025191555
51	0x3d490268	0.04907456
52	0x3d0e208f	0.03469902
53	0x3c6a5626	0.014302766
54	0xbd4b3bf2	-0.049617715
55	0xbcdfe580	-0.027331114
56	0xbc4645e9	-0.012101629
57	0x3d3c6995	0.04599913
58	0x3c7f90a2	0.015598448
59	0x3d0dc7cf	0.03461438
60	0x3d527967	0.05138531
61	0x3c866828	0.016407087
62	0x3ce3e3e3	0.027818626
63	0x3cc2a33b	0.023759475
64	0x3c00cddf	0.0078615835
65	0x3d185a78	0.037195653
66	0x3c833551	0.016016634
67	0x3b0e8551	0.0021746943
68	0x3cd64777	0.026157124
69	0xba7aa660	-0.0009561535
70	0xbc007f80	-0.007842898
71	0x3c15683b	0.009119089
72	0xbc692676	-0.014230361
73	0xbcdbe25f	-0.02684134
74	0xbcb006f3	-0.021487689
75	0x3ca28005	0.019836435
76	0x3c389308	0.011265524
77	0x3bf84f19	0.0075777886
78	0x3c3e63c1	0.011620463
79	0x3d10b1e0	0.035325885
80	0x3d1c41fd	0.03814887
81	0xbc2cde52	-0.010551052
82	0x3b9ad4e4	0.0047250856
83	0x3cefa082	0.02925134
84	0xbc32d694	-0.010915417
85	0xbce4d951	-0.027935656
86	0xbd0027b9	-0.031287882
87	0xbcb75b73	-0.022382474
88	0xbb8ec855	-0.0043573775
89	0x3c9ff1b7	0.019524438
90	0x3d3e8964	0.046517745
91	0x3cbe7c76	0.023252707
92	0xbab9ca66	-0.0014174699
93	0xbc06257e	-0.00818765
94	0xbd2dd1c9	-0.042436395
95	0xbcd972e4	-0.026544042
96	0xbd297dbf	-0.041379686
97	0xbc8a191f	-0.016857682
98	0xbcbad529	-0.02280672
99	0x3beef8e1	0.0072928523
100	0x3d29bc62	0.04143942
101	0xbb0b9732	-0.0021299836
102	0xbc84cdc8	-0.016211405
103	0x3b107482	0.00220421
104	0x3c2f0039	0.010681205
105	0xbc32082f	-0.010866209
106	0x3cd27a09	0.025692957
107	0x3cf123b1	0.029435964
108	0xbca37d9d	-0.019957358
109	0xbcafb4dc	-0.021448545
110	0xbd466a5c	-0.048441276
111	0x3c7de5c3	0.015496674
112	0x3c9c42c7	0.01907481
113	0x3bc0673b	0.005871681
114	0xbcbaf1f7	-0.022820456
115	0xbd182486	-0.037144206
116	0x3b45f364	0.0030204887
117	0x3cd9d892	0.026592527
118	0x3ba5f1d3	0.005064228
119	0x3d1fa2b8	0.03897354
120	0xbcd5d742	-0.02610362
121	0x3c4b5657	0.012410722
122	0x3c33a7bf	0.010965287
123	0x3c542ee9	0.012950637
124	0xbd0c93c0	-0.034320593
125	0x3c6d030a	0.014466057
126	0xbcb5e78d	-0.022205139
127	0x3d43bae4	0.047785655
128	0x3cbe3a2a	0.023221094
129	0xbca94ff5	-0.02066801
130	0xbcc1fb3d	-0.02367937
131	0xbc271f2b	-0.010200302
132	0xbc9bc645	-0.01901544
133	0xbd57fdbf	-0.052732226
134	0xbcb36319	-0.02189784
135	0xbcf652e9	-0.030068832
136	0xbcf63e78	-0.030059084
137	0xbce91651	-0.028453024
138	0x3ca8b043	0.02059186
139	0x3c5bb1c2	0.01340908
140	0xbb141e0d	-0.002260092
141	0x3d40be70	0.047056615
142	0x3d6e8d79	0.058240388
143	0x3c740b86	0.0148953255
144	0x3c452a27	0.012033976
145	0x3ca1dd14	0.019758739
146	0xbbc28ab7	-0.0059369463
147	0xbc2b5593	-0.010457414
148	0xbd1570b7	-0.036484446
149	0x3bb0273f	0.0053757722
150	0xbc8f65fc	-0.017504685
151	0x3ce47f78	0.027892813
152	0x3cb5ab82	0.022176508
153	0xbc503896	-0.012708804
154	0x3cf0b0f0	0.029381245
155	0xbb39d2e4	-0.002835446
156	0xbcfece02	-0.031104092
157	0xbcde2cc0	-0.027120948
158	0x3ba3f84b	0.005003964
159	0xbb42d41f	-0.0029728485
160	0xbcfb1ebb	-0.030654302
161	0xbccc037a	-0.024904002
162	0x3cfb3522	0.030664984
163	0x3d01a30e	0.03164964
164	0xbca1b068	-0.019737437
165	0x3c621dfa	0.013801092
166	0xbd13630d	-0.035983134
167	0x3cbf37b6	0.023341995
168	0xbd2d40b1	-0.042298023
169	0xbd39eeca	-0.045393743
170	0xbca5a879	-0.020221936
171	0xbca1d415	-0.019754449
172	0x3d0889f2	0.03333468
173	0xbc20c1b6	-0.009811809
174	0xbc5d96ae	-0.013524694
175	0x3aea4266	0.0017872571
176	0x3ba49501	0.0050226455
177	0xbd08825b	-0.03332744
178	0xbc264284	-0.0101476945
179	0xbcad28d3	-0.02113763
180	0x3c1313ee	0.00897692
181	0xbbdbd093	-0.0067082136
182	0xb8d29abc	-0.00010042402
183	0x3d1b0a2c	0.037851498
184	0x3cb6a7c9	0.022296803
185	0x3bf133f5	0.00736093
186	0x3d2046f0	0.03913015
187	0xbc50b4e4	-0.01273844
188	0xbba5955d	-0.005053206
189	0x3cb9b592	0.022669587
190	0x3c2c1172	0.010502206
191	0x3955d5fa	0.00020392975
192	0x3c9faf6f	0.019492833
193	0x3c375ef7	0.011192075
194	0x3c9df154	0.019280113
195	0xbcf41579	-0.029795395
196	0xbb98cc44	-0.0046630222
197	0x3d4d62e9	0.050143156
198	0xbc899623	-0.016795224
199	0x3cbb37b9	0.02285372
200	0x3c6a03f2	0.014283167
201	0x3c4e064c	0.0125747435
202	0x3cee58d0	0.029095083
203	0x3c72e8b0	0.014825985
204	0xbca36a45	-0.019948134
205	0xbb8010b5	-0.0039082416
206	0xbc8acc2f	-0.016943065
207	0x3d6c189f	0.057640668
208	0xbb663f26	-0.0035132854
209	0x3ba83e53	0.0051343828
210	0xbb7a89dc	-0.0038229143
211	0x3c6cd798	0.014455698
212	0xbbe8ca90	-0.0071042255
213	0xbbd1962c	-0.0063960757
214	0xbbfc61c5	-0.0077020847
215	0x3b9fff18	0.0048827045
216	0xbbac1aa2	-0.0052521983
217	0x3c77b5b7	0.015119008
218	0x3c2c687e	0.01052296
219	0x3cbe254d	0.023211146
220	0x3ccdff18	0.025146052
221	0x3bfcde97	0.0077169645
222	0xbc60ce35	-0.013721039
223	0x3c0974d7	0.008389673
224	0xbcb0a66a	-0.021563727
225	0xbd4ff24b	-0.050768178
226	0xbd18e654	-0.037329033
227	0xbd1b4c44	-0.03791453
228	0x3c17255f	0.009225219
229	0xbc12fee0	-0.0089719
230	0xbba4dfa5	-0.0050315433
231	0x3d576bb3	0.052592944
232	0xbce0610d	-0.027390027
233	0x3c0aea85	0.008478765
234	0x3d0bef96	0.034164034
235	0x3b7fee20	0.0039051846
236	0x3b249dee	0.0025118547
237	0xbc33b764	-0.010969017
238	0xbd4a8291	-0.049440924
239	0xbb82f341	-0.0039962833
240	0x3785d37d	1.5953317e-05
241	0xbcd8af64	-0.02645082
242	0xbd344521	-0.04401124
243	0x3c91534d	0.017739916
244	0x3bec975d	0.0072201923
245	0xbd5998a7	-0.053124096
246	0x3c9b43f4	0.018953301
247	0x394b8a5b	0.0001941113
248	0xbcafb0c0	-0.021446586
249	0x3b838af0	0.0040143654
250	0x3b6c54ba	0.0036061243
251	0x3c762a4f	0.015024736
252	0xba19ce92	-0.0005867268
253	0x3cf9bb09	0.030484693
254	0x3c578683	0.013154629
255	0x3c1d1621	0.0095877955

decoder.2.conv.conv.bias f4 [40]
0	0x383be85c	4.4800676e-05
1	0x3a772f27	0.00094293285
2	0xbca906f0	-0.02063319
3	0xbc4283b3	-0.01187222
4	0xbccb2334	-0.02479706
5	0xbbac8a7e	-0.005265533
6	0xbb1bbc04	-0.002376319
7	0x3c48237a	0.0122154895
8	0xbc998acd	-0.018742943
9	0x3b9475df	0.004530653
10	0xbb863600	-0.004095793
11	0x3bc41d84	0.005984964
12	0x3c5a066e	0.013307197
13	0x3bfa037a	0.007629809
14	0xbbabe672	-0.005245977
15	0x3b9e0060	0.004821822
16	0x3bb78966	0.005601096
17	0x3b6b8958	0.0035940018
18	0xbc2f43dc	-0.010697331
19	0x3c160da7	0.009158528
20	0x3bbb6249	0.0057185036
21	0x3c39a5a2	0.011330994
22	0x397226e0	0.000230934
23	0x3c76f26c	0.015072446
24	0xbc4a59a7	-0.012350476
25	0xbc6853bd	-0.014180121
26	0xbc93e361	-0.018052759
27	0xbc7595f7	-0.014989368
28	0xbadc8559	-0.0016824409
29	0xbc7ce028	-0.015434302
30	0xbb2cc832	-0.0026364443
31	0x3c672e8a	0.014110217
32	0xbc60b468	-0.013714887
33	0xbc173aad	-0.009230298
34	0x3c6d7896	0.014494082
35	0x3cc585c8	0.024111643
36	0x3c85f6a2	0.016352955
37	0xbc2478cb	-0.010038565
38	0xbc98a6af	-0.018634168
39	0xbbfaf0f0	-0.0076581165

decoder.2.nonlin.total_ops f8 [1]
0	0x0000000000000000	0.0

decoder.2.nonlin.total_params f8 [1]
0	0x0000000000000000	0.0

decoder.3.total_ops f8 [1]
0	0x0000000000000000	0.0

decoder.3.total_params f8 [1]
0	0x0000000000000000	0.0

decoder.3.conv.total_ops f8 [1]
0	0x0000000000000000	0.0

decoder.3.conv.total_params f8 [1]
0	0x0000000000000000	0.0

decoder.3.conv.pad.total_ops f8 [1]
0	0x0000000000000000	0.0

decoder.3.conv.pad.total_params f8 [1]
0	0x0000000000000000	0.0

decoder.3.conv.conv.weight f4 [40, 88, 3, 3]
0	0x3cb360d2	0.021896753
1	0xbcb79989	-0.022412078
2	0x3c1c21b7	0.009529523
3	0x3c97759e	0.018488701
4	0xbc1e7593	-0.009671587
5	0x3c780427	0.015137709
6	0x3c774b2b	0.015093605
7	0x3b088854	0.002083321
8	0x3b168543	0.0022967614
9	0xbabc5077	-0.0014367242
10	0xbbc33c86	-0.0059581427
11	0xbd01bb36	-0.03167268
12	0x3ce4420c	0.027863525
13	0xbaaccf1e	-0.0013184284
14	0xbc911aa5	-0.0177129
15	0x3d1c4136	0.038148127
16	0x3d073373	0.03300805
17	0xbc830650	-0.015994221
18	0xbcca73ee	-0.024713483
19	0xbce2759d	-0.027643973
20	0xbc067dea	-0.008208731
21	0xbc6f80af	-0.014618083
22	0x3adc33fa	0.0016800158
23	0x3bf70ab2	0.007539117
24	0x3c9d477a	0.019199122
25	0x3b9c9d0b	0.004779463
26	0x3cd44e02	0.025916103
27	0x3c71129b	0.014713909
28	0xbd155702	-0.03645993
29	0x3b97c1b1	0.004631244
30	0x3c390946	0.011293715
31	0x3c659982	0.01401365
32	0x3d14e1c4	0.03634812
33	0xbccde1bf	-0.025132058
34	0xbc8107a1	-0.015750708
35	0x3b03e86d	0.002012755
36	0xbc6827eb	-0.014169673
37	0xbc45164a	-0.01202924
38	0xbcd36726	-0.025806021
39	0x3c1d16cb	0.009587954
40	0x3cc6927f	0.024239777
41	0x3bf14882	0.00736338
42	0xbcca661f	-0.024706898
43	0x3c046824	0.00808147
44	0xbbf94c22	-0.0076079527
45	0xbc917642	-0.017756585
46	0xbca4c6ca	-0.020114321
47	0x3be10790	0.0068673566
48	0x3c656d3b	0.014003093
49	0x3c2843b0	0.010270044
50	0x3bf6d02d	0.0075321407
51	0x3c250413	0.010071772
52	0x3bf3f2b2	0.007444703
53	0x3cd4c99f	0.025975047
54	0xbc067ec6	-0.008208936
55	0xbd1d5eff	-0.038420673
56	0xbc1888c0	-0.0093099475
57	0x39e948c0	0.00044495426
58	0xbc9b60cb	-0.018967053
59	0xbc2f3fb2	-0.0106963385
60	0x3ccfd460	0.025369823
61	0xbbf9fd97	-0.007629107
62	0xbc9eed48	-0.019400254
63	0x3d0e9c1a	0.03481684
64	0x3c0abb04	0.00846744
65	0x3d2562c3	0.04037739
66	0x3d8b3fdb	0.06799289
67	0x3c4435e8	0.011975743
68	0x3d0271d3	0.031846832
69	0x3b7f734a	0.003897863
70	0x3cc20e4c	0.023688458
71	0x3d1cec96	0.038311563
72	0xbc5592b7	-0.013035468
73	0xbaf836cb	-0.0018937228
74	0xbcc85db4	-0.024458744
75	0xbad75281	-0.0016427786
76	0x3c9bea58	0.019032642
77	0x3a1b1cb6	0.0005917059
78	0xbbdcdab4	-0.0067399386
79	0xbc4b29e5	-0.012400125
80	0x3cf9ee50	0.030509144
81	0xbc9cdc42	-0.019147996
82	0xbca5154f	-0.020151762
83	0x3ac1b47d	0.0014778521
84	0xbc592815	-0.013254185
85	0xbb91cfa5	-0.004449802
86	0x3c4f92fc	0.012669321
87	0x3c0a131b	0.008427407
88	0xbcb26242	-0.021775369
89	0x3d069c09	0.03286365
90	0x3c773c7e	0.015090106
91	0xbb9bd940	-0.004756123
92	0x3c929a96	0.017895978
93	0x3ca99ebb	0.020705571
94	0x3cc7ce2e	0.024390306
95	0x3acbf8a2	0.0015561769
96	0x3cd2535d	0.025674516
97	0x3d030ccc	0.031994626
98	0x3c8bffce	0.01708975
99	0x3cb5d660	0.022196949
100	0xbcc68978	-0.024235472
101	0x3ce3ff36	0.027831655
102	0xbc85f99c	-0.016354375
103	0x3c868b40	0.016423821
104	0xba764610	-0.00093945954
105	0x3b323a57	0.0027195418
106	0x3c9d1258	0.019173786
107	0xb885e5f2	-6.384765e-05
108	0x3cb7cc9a	0.022436429
109	0xbcae9d36	-0.021315198
110	0xbc9b2109	-0.01893665
111	0xbd5418bc	-0.0517814
112	0xbbbcbc53	-0.0057597547
113	0xbc8f96be	-0.017527934
114	0xbd25c9e8	-0.040475756
115	0xbd0bd50b	-0.03413872
116	0xbc8e9bb9	-0.017408239
117	0x3b61bde5	0.0034445461
118	0x3cb1add3	0.021689331
119	0x3c222612	0.009896772
120	0x3cb2fa2b	0.021847805
121	0xbcc4ef16	-0.024039786
122	0xbd31ff7a	-0.043456532
123	0xbd086188	-0.033296138
124	0x3c564327	0.013077534
125	0xbc963cb9	-0.018339502
126	0x3c408cc8	0.011752315
127	0x3c6bc3f1	0.014389978
128	0x3ce4ca2f	0.02792844
129	0xbccdf7da	-0.025142599
130	0xbcb75836	-0.02238093
131	0xbc76038e	-0.015015496
132	0xbd91c2a7	-0.07117205
133	0xbb2f0b4a	-0.002670961
134	0x3b844b74	0.004037315
135	0x3d40301e	0.046920888
136	0xb9c1c775	-0.00036960436
137	0x3d19741c	0.037464246
138	0x3d2ecd6e	0.04267638
139	0x3c792129	0.01520566
140	0x3d15dad0	0.03658563
141	0x3b9e0925	0.0048228675
142	0x3cdce391	0.02696398
143	0x3c6deac9	0.014521309
144	0x3b28e94c	0.0025773821
145	0x3b2a0733	0.0025944232
146	0x3d05def4	0.032683328
147	0x3d2b8a5d	0.04188
148	0x39801dae	0.00024436176
149	0x3914a634	0.00014176295
150	0x3d19e6c6	0.0375736
151	0xbc485f9d	-0.012229827
152	0xbc4be905	-0.012445693
153	0xbc3b71e2	-0.011440726
154	0xba97b3aa	-0.001157393
155	0x3c5025df	0.012704342
156	0xbd323dd8	-0.04351601
157	0x3ceefa9f	0.02917224
158	0x3ba974aa	0.005171378
159	0xbc8dc56c	-0.017306052
160	0x3cbf43e3	0.0233478
161	0x3c79c066	0.015243625
162	0xbc68c7e1	-0.014207811
163	0x3c75c0a4	0.014999542
164	0x3c134618	0.00898888
165	0x3c2c52cc	0.010517787
166	0xbafd303d	-0.0019316744
167	0xbac86543	-0.0015288967
168	0xbd3bf89f	-0.0458914
169	0xbd2472ba	-0.040148474
170	0x3b4ae101	0.0030956867
171	0x3b18934b	0.0023281153
172	0x3c15f8f2	0.0091535915
173	0xba51a63b	-0.00079974876
174	0x3bcbd6c3	0.00622067
175	0xbcb6f0ac	-0.022331558
176	0xbc7d9465	-0.015477275
177	0x3c33beb8	0.010970764
178	0xbcb181fd	-0.021668429
179	0xbc40433d	-0.011734781
180	0xbc9e0c72	-0.019293044
181	0xbd2283e0	-0.039676547
182	0xbc9d8c1e	-0.019231852
183	0xbbcd6ac9	-0.0062688333
184	0x3c10b069	0.008831122
185	0x3ce28bf4	0.027654625
186	0x3c96486c	0.01834508
187	0x3c9ac290	0.018891603
188	0xbc9abd03	-0.018888956
189	0x3ce2fe64	0.027709194
190	0x3c4b7a73	0.012419331
191	0xbbe42621	-0.006962553
192	0xbc4f7ad2	-0.01266356
193	0xbbfa0c41	-0.0076308553
194	0xbd38f206	-0.045152687
195	0xbcb17a85	-0.021664867
196	0xbcb8d92c	-0.022564493
197	0xbbb7fc8c	-0.0056148227
198	0xbac70c8d	-0.0015186236
199	0x3c38aa48	0.011271067
200	0x3c9c17bb	0.019054284
201	0x3cc2bba6	0.023771118
202	0xbba9750b	-0.0051714233
203	0xbd0f5afc	-0.03499888
204	0xbc738266	-0.014862632
205	0xbc327973	-0.010893214
206	0xbc47c7d8	-0.012193643
207	0x3ca76ddf	0.020438133
208	0x3d316905	0.043313045
209	0x3d2e5f68	0.042571455
210	0x3c02caa4	0.007982884
211	0x3d227baf	0.039668735
212	0x3d078012	0.03308112
213	0x3d777761	0.060416583
214	0x3b4b3aec	0.0031010462
215	0x3c8b169d	0.016978556
216	0x3cc751ba	0.024330962
217	0xbcaae9c2	-0.020863418
218	0xbd6692b2	-0.056292243
219	0xbc7d63e8	-0.015465714
220	0xbd0262c8	-0.031832486
221	0x3c767dee	0.015044672
222	0x3cd15414	0.025552787
223	0x3b309f2f	0.002695035
224	0xbbc3912e	-0.0059682345
225	0xbc6e7ced	-0.014556152
226	0x3cefe0c5	0.029281983
227	0xbb9f02f1	-0.0048526456
228	0xbc5edb0f	-0.013602032
229	0x3cc66a8b	0.024220726
230	0xbaeeb1bf	-0.0018210931
231	0x3b417bac	0.0029523177
232	0x3c2fd464	0.01073179
233	0x3be9b499	0.0071321246
234	0xbd6f9251	-0.058489148
235	0xbb7d5cf4	-0.003866014
236	0x3bae7cc7	0.005324933
237	0x3ca7da04	0.0204897
238	0xbc58f4d2	-0.013241963
239	0x3b987954	0.0046531353
240	0xbc3a3e4a	-0.01136739
241	0xbcba578c	-0.022746824
242	0xbc998c77	-0.018743737
243	0x3c1f4d16	0.009722969
244	0xbd342cf6	-0.04398819
245	0xbbebf24b	-0.0072005144
246	0x3c36257f	0.011117338
247	0x3c8e43a4	0.017366238
248	0x3c7ace6e	0.015308006
249	0xbb3e9f0c	-0.0029086499
250	0xbc27e790	-0.01024808
251	0xbbbdf0cc	-0.0057965275
252	0x3c15a0a7	0.009132541
253	0x3ac76bae	0.0015214586
254	0x3d1c5eee	0.03817647
255	0xbc8125ac	-0.015765034

decoder.3.conv.conv.bias f4 [40]
0	0x3c209d82	0.009803178
1	0x3c51ac3d	0.012797412
2	0xbd0aea91	-0.033915106
3	0xbcc6e478	-0.024278864
4	0xbd2cd7fc	-0.042198166
5	0xbd36dcb0	-0.044644058
6	0xbc451105	-0.012027984
7	0x3d7f8218	0.062379926
8	0x3cf38563	0.02972669
9	0xbcccfa18	-0.025021598
10	0xbce3241b	-0.027727177
11	0xbc827f92	-0.01592997
12	0xbc7f0d8f	-0.015567197
13	0xba63cac1	-0.00086895755
14	0xbcc74392	-0.024324212
15	0xbca53304	-0.020165928
16	0xbc02b083	-0.007976654
17	0x3bdaedfd	0.0066812024
18	0xbd82110a	-0.06350906
19	0xbcc2d4e4	-0.023783155
20	0xbc98ad9a	-0.018637467
21	0xbd227abf	-0.03966784
22	0x3ceeb889	0.029140728
23	0xbc9fcfa0	-0.019508183
24	0xbc3e5481	-0.011616827
25	0xbcdff120	-0.027336657
26	0xbcdd662c	-0.027026258
27	0x3c9b8548	0.018984452
28	0xbcc859e6	-0.02445693
29	0xbd496fa3	-0.04917873
30	0xbb15e22c	-0.0022870405
31	0xbccd0ca0	-0.025030434
32	0xbd0f0d71	-0.034924928
33	0x3d0dc7f6	0.034614526
34	0x3c3c9003	0.011508944
35	0xbd4d9591	-0.050191466
36	0xbcf951d1	-0.03043452
37	0x3d1e315d	0.038621295
38	0x3cf96c5f	0.030447183
39	0x3a33ce9b	0.0006859095

decoder.3.nonlin.total_ops f8 [1]
0	0x0000000000000000	0.0

decoder.3.nonlin.total_params f8 [1]
0	0x0000000000000000	0.0

decoder.4.total_ops f8 [1]
0	0x0000000000000000	0.0

decoder.4.total_params f8 [1]
0	0x0000000000000000	0.0

decoder.4.conv.total_ops f8 [1]
0	0x0000000000000000	0.0

decoder.4.conv.total_params f8 [1]
0	0x0000000000000000	0.0

decoder.4.conv.pad.total_ops f8 [1]
0	0x0000000000000000	0.0

decoder.4.conv.pad.total_params f8 [1]
0	0x0000000000000000	0.0

decoder.4.conv.conv.weight f4 [24, 40, 3, 3]
0	0xbc44cd89	-0.012011894
1	0xbaf34abc	-0.0018561701
2	0xbcc48322	-0.02398831
3	0x3ca90b10	0.020635158
4	0x3aab58d9	0.0013072743
5	0x3b71bc28	0.0036885832
6	0x3d44d355	0.048053104
7	0xbc5ce100	-0.013481379
8	0x3c0a99b6	0.008459499
9	0xbc360fb2	-0.0111121405
10	0xbc8e691f	-0.01738411
11	0xbc1fae64	-0.009746168
12	0x3d6626eb	0.05618946
13	0xbc4b4a44	-0.012407843
14	0x3d2efa1f	0.042719003
15	0xbcea8a41	-0.028630378
16	0xbad198a4	-0.0015990925
17	0x3c235b69	0.009970524
18	0xbc23096a	-0.009950975
19	0x3b46a647	0.0030311511
20	0x3d027e76	0.031858884
21	0xbbb9a362	-0.0056652287
22	0x3d09e4ab	0.03366534
23	0x3bc7697c	0.0060855728
24	0xbcc71ee9	-0.024306731
25	0x3cdbfd65	0.026854226
26	0x38d3ed79	0.00010105497
27	0x3d84d040	0.06485033
28	0x3c1aff22	0.009460242
29	0xbd9f0aa0	-0.077656984
30	0x3ccfb74b	0.025355956
31	0x3d884298	0.06653327
32	0x3c96b156	0.018395107
33	0x3cc88627	0.024478031
34	0x3cb0bf87	0.021575702
35	0xbca5dda1	-0.020247282
36	0xbd70e0a8	-0.058808
37	0xbd274674	-0.040838674
38	0xbcfc5a85	-0.030804882
39	0xbd0bb868	-0.03411141
40	0x3b4ae796	0.003096079
41	0x3cb68041	0.022277953
42	0xbd8ffcbe	-0.070306286
43	0xbca1bf10	-0.019744426
44	0xbcff501c	-0.031166129
45	0xbca93f18	-0.020659968
46	0xbccd2b0c	-0.02504494
47	0xbcad4a8f	-0.021153716
48	0xbd21503d	-0.03938316
49	0x3d42defd	0.04757594
50	0xbc43d22d	-0.011951965
51	0x3d071477	0.0329785
52	0xbcb089d5	-0.021550098
53	0x3cb40641	0.021975638
54	0x3d674ed6	0.05647167
55	0x3c5d9bde	0.013525931
56	0x3d50f698	0.05101642
57	0x3b29d31f	0.0025913191
58	0xbcb3da13	-0.021954572
59	0x3d79efea	0.061019816
60	0xba34a51b	-0.0006891058
61	0xbc95d3bd	-0.018289441
62	0xbd8556ff	-0.06510734
63	0x3d2861c0	0.041108847
64	0x3ba6f744	0.0050953943
65	0x3cc25ca0	0.023725808
66	0x3cb63930	0.022244066
67	0x3c314adb	0.01082107
68	0x3dc2e180	0.09515667
69	0x3d3cea31	0.04612178
70	0xbd73a7ad	-0.05948608
71	0x3a1fa858	0.0006090454
72	0x3d42e671	0.047583047
73	0xbd13fa43	-0.03612734
74	0xbd5b4854	-0.053535774
75	0x3d6530d5	0.055954773
76	0x3a34e6e3	0.000690086
77	0xbd03340c	-0.032032058
78	0x3df67118	0.1203329
79	0x3d3f44cf	0.04669648
80	0xbc9fe9bb	-0.019520631
81	0x3b9fc3e5	0.0048756474
82	0xbd1eeb3b	-0.038798552
83	0xbcb6d9a1	-0.02232057
84	0x3c3e6f47	0.01162321
85	0xb98a8ac3	-0.00026424797
86	0xbce68bc0	-0.02814281
87	0x3cd6b2bd	0.026208276
88	0xbb28a177	-0.0025731006
89	0x3d3a3dc2	0.045469053
90	0xbb55fcea	-0.003265197
91	0x3d1904ff	0.03735828
92	0x3d5f6395	0.05453833
93	0x3b8b170c	0.0042446908
94	0x3cbc2a5b	0.022969415
95	0xbc4aadf3	-0.012370574
96	0x3cb14a49	0.021641867
97	0xbc556b74	-0.013026107
98	0xbccc247f	-0.024919746
99	0x3d481e1f	0.04885685
100	0xbc6cf25c	-0.01446208
101	0xbcc36706	-0.023852836
102	0x3d4719e8	0.04860869
103	0x3c9235d9	0.017847942
104	0x3d10b92d	0.035332847
105	0x3d7bbd86	0.06146004
106	0x3cf2553b	0.029581657
107	0xbc2c9519	-0.0105335945
108	0x3d75631b	0.059908967
109	0xbc876b95	-0.016530791
110	0x3cc8dc94	0.024519242
111	0x3d064f52	0.03279049
112	0xbc3cf54c	-0.011533093
113	0x3c813dce	0.015776541
114	0x3d7b95bd	0.0614221
115	0x3c65f1ed	0.01403473
116	0x3d1366fb	0.03598688
117	0x3d1bd328	0.03804317
118	0x3d06ddab	0.032926243
119	0x3b54bcd9	0.0032461195
120	0x3c4a2d23	0.012339863
121	0x3cd08a43	0.025456553
122	0xbc139a45	-0.009008949
123	0xbd0b20c9	-0.033966813
124	0x39c387aa	0.00037294376
125	0xbc5059a6	-0.012716686
126	0xbd68de22	-0.056852467
127	0x3b99025f	0.004669472
128	0x3d66cc85	0.05634739
129	0xbd81c626	-0.06336622
130	0xbcd725f3	-0.026263213
131	0x3d045f9d	0.032317746
132	0xbc8ef7e2	-0.017452184
133	0x3cf8ae56	0.030356567
134	0x3daeb8fb	0.08531376
135	0x3d073cba	0.033016898
136	0x3d032e66	0.03202667
137	0x3c318034	0.010833789
138	0x3d7ccc46	0.061718248
139	0x3b0e77c2	0.0021738862
140	0x3b619178	0.0034418982
141	0x3d2171d9	0.039415214
142	0xbb30d2e4	-0.002698117
143	0xbc9b8e84	-0.018988855
144	0x3ccd9c8e	0.025099065
145	0x3a7e9029	0.00097108126
146	0x3ba4a36a	0.0050243633
147	0x3d2e2fdf	0.042526122
148	0xbc8e0cf2	-0.017340157
149	0xbadf3c05	-0.0017031437
150	0xbbe5e0c3	-0.007015319
151	0xbcc56d12	-0.02409986
152	0xbbe4f701	-0.006987453
153	0x3c626538	0.013818078
154	0x3c5abbe1	0.013350458
155	0x3d9d06b2	0.07667293
156	0x3bde582c	0.0067854133
157	0x3d16d168	0.0368208
158	0x3d19ac7e	0.037518017
159	0x3c71ccb1	0.014758275
160	0xbc3ee206	-0.011650568
161	0xbc7a3bed	-0.0152730765
162	0x3c2ce56a	0.010552743
163	0x3cd766fd	0.026294226
164	0x3cbc4491	0.022981914
165	0x3d06aaa1	0.03287757
166	0x3b84fefe	0.0040587178
167	0x3d1d6b85	0.038432617
168	0xbc957e68	-0.018248752
169	0xbd4745bc	-0.04865049
170	0xbbd9176a	-0.0066251056
171	0xbcd41389	-0.025888221
172	0xbc8bced1	-0.017066391
173	0xbc167bbd	-0.009184775
174	0xbba0737c	-0.0048965793
175	0xbd0aea3a	-0.033914782
176	0x3c02b45a	0.0079775695
177	0xbb4bf3e9	-0.0031120724
178	0x3c058cbc	0.0081512295
179	0x3d016daa	0.031598724
180	0x3d08d3c8	0.033405095
181	0xbd230af2	-0.03980536
182	0xbdc47347	-0.095923
183	0x3d18d16a	0.037309088
184	0x3ca75a53	0.020428812
185	0x3d0b45c2	0.034002073
186	0xbb92c163	-0.00447862
187	0xbd6f9f93	-0.05850179
188	0x3caa9b98	0.020826146
189	0xbc807d43	-0.01568473
190	0xbda377f3	-0.07981863
191	0xbd36dbd2	-0.04464323
192	0x3d0b9cf4	0.03408523
193	0x3c29d4ca	0.010365674
194	0x3c8815ba	0.016611923
195	0x3d934d44	0.071924716
196	0xbd9a68f6	-0.07539551
197	0xbd360178	-0.044434994
198	0xbd9971fe	-0.074924454
199	0x3c035687	0.008016235
200	0x3c41e204	0.0118336715
201	0xbd1d1f25	-0.03835978
202	0xbd54f825	-0.05199446
203	0x3d6b5bf9	0.05746076
204	0xbd8bd1c7	-0.06827121
205	0xbd1af76d	-0.03783362
206	0x3ca60d9d	0.020270163
207	0x3d295658	0.04134211
208	0x3c187d31	0.009307192
209	0xbbfcbb36	-0.007712747
210	0x3dce634c	0.10077533
211	0x3d591858	0.05300173
212	0xbca817d0	-0.020519167
213	0x3d8be9eb	0.06831726
214	0x3c4ad6ae	0.012380285
215	0xbd957f0c	-0.07299623
216	0xbc09caf5	-0.008410205
217	0x3d13938b	0.03602938
218	0x3d961ca6	0.07329683
219	0xbd96aae0	-0.073568106
220	0xbd1cf074	-0.03831525
221	0x3d8e3281	0.069432266
222	0xbda953d8	-0.08267945
223	0xbcdcc149	-0.026947634
224	0x3d954166	0.072878644
225	0x3cfa9735	0.03058968
226	0x3c194758	0.009355389
227	0xbc7ec810	-0.015550628
228	0xba8acc42	-0.0010589438
229	0xbd6abd13	-0.05730922
230	0xbd32d212	-0.04365737
231	0xbd1eda39	-0.038782332
232	0xbd88ac35	-0.06673471
233	0xbc84a0e0	-0.016189992
234	0xbc47008a	-0.012146125
235	0xbc350b67	-0.011050082
236	0xbd07f196	-0.03318938
237	0x3c2790e7	0.0102274185
238	0xbc3c1c56	-0.011481365
239	0xbbfc8069	-0.0077057374
240	0x3bbb3122	0.005712644
241	0x3c6a8ff4	0.014316548
242	0x3b9250db	0.004465205
243	0x3c1ff40a	0.009762773
244	0x3c4d649a	0.012536192
245	0x3c027d4e	0.007964445
246	0xbca085d1	-0.019595059
247	0x3c3ec7f4	0.011644352
248	0x3b980176	0.004638846
249	0xbc9b9eeb	-0.018996676
250	0xbc2ff4d1	-0.010739521
251	0xbc165c90	-0.009177342
252	0xbcb9826a	-0.022645194
253	0x3c92b4f4	0.01790855
254	0xbbdfa954	-0.0068256054
255	0xbd2bad27	-0.041913178

decoder.4.conv.conv.bias f4 [24]
0	0xbcbd4b1e	-0.023107108
1	0x3ce8407d	0.028351063
2	0xbc1ee398	-0.009697817
3	0xbc8e57d6	-0.017375868
4	0xbc8c17bb	-0.01710116
5	0xbcd15066	-0.025551032
6	0x3c5e174e	0.013555361
7	0xbccdfb5a	-0.025144268
8	0x3b6f8f94	0.0036554085
9	0xbc1d0568	-0.0095838085
10	0xbd197330	-0.037463367
11	0xbd256db8	-0.04038784
12	0x3c5eaa3f	0.0135903945
13	0x3ca82614	0.02052597
14	0x3bcfc218	0.0063402764
15	0xbcb7ced5	-0.022437492
16	0xbd088b6c	-0.033336088
17	0x3c75b7a3	0.014997396
18	0xbcbab2e4	-0.02279038
19	0xbccc71eb	-0.024956664
20	0xbc1053fc	-0.008809086
21	0x3c67509a	0.014118338
22	0x3b6423ef	0.0034811457
23	0xbc0fee94	-0.008784909

decoder.4.nonlin.total_ops f8 [1]
0	0x0000000000000000	0.0

decoder.4.nonlin.total_params f8 [1]
0	0x0000000000000000	0.0

decoder.5.total_ops f8 [1]
0	0x0000000000000000	0.0

decoder.5.total_params f8 [1]
0	0x0000000000000000	0.0

decoder.5.conv.total_ops f8 [1]
0	0x0000000000000000	0.0

decoder.5.conv.total_params f8 [1]
0	0x0000000000000000	0.0

decoder.5.conv.pad.total_ops f8 [1]
0	0x0000000000000000	0.0

decoder.5.conv.pad.total_params f8 [1]
0	0x0000000000000000	0.0

decoder.5.conv.conv.weight f4 [24, 24, 3, 3]
0	0xbd4f292a	-0.050576366
1	0xbd62c91a	-0.055367567
2	0xbd83f938	-0.06444019
3	0xbdc7e3ae	-0.09760223
4	0xbd2f3230	-0.042772472
5	0xbd5c227e	-0.05374383
6	0xbdd963c6	-0.106147334
7	0xbda4239d	-0.08014605
8	0xbc8140c9	-0.015777962
9	0xbbef3b87	-0.0073007974
10	0x3c697d42	0.014251055
11	0x3cbd47f8	0.023105606
12	0xbd340f73	-0.043960046
13	0x3d515239	0.051103804
14	0x3cefae7d	0.029258007
15	0x3bbb4b7f	0.005715787
16	0x3cf4b902	0.029873375
17	0x3c9fe1b8	0.01951681
18	0x3ca66349	0.020311015
19	0x3a3f8f09	0.00073073857
20	0x3ca9cb44	0.020726807
21	0xbc3c5526	-0.01149491
22	0x3d3c04d9	0.04590306
23	0x3cedd79f	0.02903348
24	0xbb8eb6d6	-0.004355292
25	0xbb60698d	-0.00342426
26	0x3d631e4b	0.05544881
27	0xbbcfc4a2	-0.006340579
28	0x3b06687b	0.0020509053
29	0xbb9cc987	-0.004784766
30	0xbcc2f940	-0.023800492
31	0x3c954ae3	0.018224185
32	0x3cb4c00f	0.022064237
33	0x3c256fa2	0.010097416
34	0xbcb6fe01	-0.022337915
35	0xbba48998	-0.0050212853
36	0x3e0ecbf1	0.13944985
37	0x3dda524d	0.10660229
38	0x3d147108	0.036240608
39	0x3e1d9285	0.15387924
40	0x3df47bfe	0.11937712
41	0x3d0bdcd3	0.03414614
42	0x3e2fd16b	0.1716973
43	0x3e008032	0.12548903
44	0x3d2c756b	0.042104166
45	0x3cb102a0	0.021607697
46	0x3d8c9106	0.068635985
47	0x3d2cdc9f	0.04220259
48	0x3d4240f4	0.047425225
49	0x3c86fa11	0.016476663
50	0x3cea777d	0.02862143
51	0x3d424794	0.047431543
52	0x3c66412d	0.014053625
53	0x3d11813b	0.035523634
54	0xbd545fac	-0.051849052
55	0x3c8287c4	0.015933879
56	0xbc95ef07	-0.018302454
57	0xbb8f4fca	-0.0043735253
58	0x3c14c411	0.009079949
59	0x3b89472c	0.0041893926
60	0xbcd4eac9	-0.02599086
61	0xbd36664c	-0.04453115
62	0xbcae7a5e	-0.021298584
63	0x3ba6f390	0.005094953
64	0x3d0764a3	0.03305496
65	0x3cf76c00	0.030202866
66	0xbc42b5b0	-0.011884138
67	0x3cd7b78f	0.026332645
68	0x3cd12714	0.02553133
69	0x3c3ad88b	0.011404167
70	0x3d002c6f	0.031292375
71	0x3d490847	0.04908016
72	0xbc2d281f	-0.010568648
73	0x3c493fd9	0.012283289
74	0xbc6087ac	-0.013704222
75	0xbcb35711	-0.021892102
76	0x3c8fb253	0.017541086
77	0x3c2323ad	0.009957236
78	0xbcda7973	-0.02666924
79	0x3a9109f8	0.0011065593
80	0x3c8954a1	0.016763987
81	0x3da0e32c	0.078558296
82	0x3d9bac19	0.076011844
83	0xbc5d52fb	-0.013508554
84	0x3de4f5ff	0.111797325
85	0x3e279b8f	0.16367935
86	0x3d159b6e	0.036525182
87	0x3e643c07	0.22288524
88	0x3e631521	0.22176029
89	0x3d9836e1	0.07432342
90	0x3d040b13	0.032237124
91	0x3e073d94	0.13207084
92	0x3e0d9eae	0.13830063
93	0x3d7ff172	0.06248612
94	0x3e3be726	0.18349895
95	0x3e002ef1	0.12517907
96	0x3d4696e3	0.04848374
97	0x3e485517	0.19563709
98	0x3e069d34	0.13145906
99	0x3dd5d22e	0.10440479
100	0x3db0a641	0.086254604
101	0x3d2b6f49	0.041854177
102	0x3df7f22a	0.12106736
103	0x3db8a275	0.09015361
104	0x3d874b87	0.066062026
105	0x3deadf5a	0.11468382
106	0x3d767ff0	0.060180604
107	0x3d842caa	0.064538315
108	0xbcaceda9	-0.021109419
109	0x3c808c99	0.015692042
110	0xbc961630	-0.018321127
111	0xbd24b7b5	-0.04021426
112	0xbc13b0f7	-0.00901436
113	0x3cca7f62	0.024718944
114	0xbc25d9a7	-0.010122693
115	0x3cb88acb	0.02252712
116	0xbc18b111	-0.00931956
117	0xbda576dd	-0.08079312
118	0xbddc0277	-0.10742658
119	0x3bba4545	0.005684527
120	0xbdd36bd7	-0.10323303
121	0xbe25ca11	-0.16190363
122	0xbc29e3bb	-0.010369237
123	0xbd945d0c	-0.0724431
124	0xbe17a48b	-0.14808862
125	0xbca23da0	-0.019804776
126	0xbc64ac56	-0.013957104
127	0x3c0d9101	0.008640529
128	0x3d01996f	0.031640466
129	0xbc987de8	-0.018614724
130	0x3d0c981a	0.034324743
131	0xbbde612d	-0.0067864866
132	0xbd3e97b0	-0.04653138
133	0xbcdd5a31	-0.027020546
134	0x3b52c1c9	0.0032158962
135	0x3ce0261b	0.02736192
136	0x3c38ed4c	0.011287045
137	0x3cc97896	0.024593633
138	0xbcdce059	-0.026962446
139	0x3c097f06	0.008392101
140	0xbb325f18	-0.0027217325
141	0x38eff97f	0.0001144288
142	0xbc33f0bc	-0.0109826885
143	0x3ce129a5	0.027485678
144	0xbd05b002	-0.032638557
145	0xbd9aacc9	-0.075524874
146	0xbc22367d	-0.009900686
147	0xbd911f6e	-0.07086073
148	0xbe233136	-0.15936741
149	0xbd043b77	-0.032283273
150	0xbe06f9df	-0.13181256
151	0xbe54b6b1	-0.20772816
152	0xbd3b1260	-0.04567182
153	0xbb81a121	-0.0039559756
154	0x3d1e7529	0.03868595
155	0x3d05d571	0.032674257
156	0xbbbd8e27	-0.005784768
157	0x3c3bf187	0.011471159
158	0x3bd78f45	0.0065783584
159	0x3c3249e8	0.010881878
160	0x3cf5a658	0.029986545
161	0x3c2271d8	0.009914838
162	0x3d16a1b4	0.036775306
163	0x3cda8820	0.026676238
164	0x3cca7794	0.024715222
165	0x3d0623c0	0.032748938
166	0x3c915fbd	0.017745847
167	0x3d054abf	0.032541987
168	0x3d081a61	0.033228282
169	0x3c6db521	0.0145085165
170	0x3b6572a4	0.0035010958
171	0x3ca89dd5	0.020583073
172	0x3d0b193b	0.03395961
173	0xbaba2da9	-0.0014204282
174	0x3cdfe37d	0.027330155
175	0x3cf4fd05	0.029905805
176	0x3d316867	0.043312456
177	0x3c9d8e2d	0.019232834
178	0x3c819440	0.015817761
179	0x3c288570	0.01028572
180	0xbe8b2b4d	-0.27181473
181	0xbd1e1f2e	-0.038603954
182	0x3db8ee84	0.09029868
183	0xbeab98f1	-0.33515123
184	0xbc36f226	-0.011166131
185	0x3daa7207	0.0832253
186	0xbe963411	-0.293366
187	0xbd9cdd57	-0.07659405
188	0x3dad2d95	0.0845596
189	0xbbd80672	-0.006592565
190	0xbc4bd707	-0.012441403
191	0x3cf1ae12	0.029501949
192	0xbcc6a42f	-0.02424821
193	0xbcbed7ca	-0.023296256
194	0xbca07ccf	-0.019590763
195	0x3b8474d7	0.0040422487
196	0xbc9bb5bc	-0.019007556
197	0x3c684780	0.014177203
198	0xbda2051c	-0.07911131
199	0xbd172d75	-0.036908586
200	0x3d7d80f9	0.061890576
201	0xbe257a70	-0.16159987
202	0xbdd5a0d3	-0.104310654
203	0x3cec5f60	0.028854072
204	0xbe439f57	-0.19103752
205	0xbd9cd0b0	-0.076569915
206	0x3c14d709	0.0090844715
207	0xbd54960a	-0.0519009
208	0xbc9f72fe	-0.019464012
209	0xbd40c64c	-0.04706411
210	0xbc760b50	-0.015017346
211	0xbcfe4dc9	-0.03104295
212	0xbd0df858	-0.034660667
213	0xbd199b47	-0.0375016
214	0xbccaeaa6	-0.024770092
215	0xbd4c1afa	-0.049830414
216	0xbbab8fec	-0.0052356627
217	0x3ab1cffd	0.0013566014
218	0xbbaf41d3	-0.005348423
219	0x3c11cff1	0.008899675
220	0x3d681590	0.05666119
221	0x3c992d9e	0.01869851
222	0x3cc303ec	0.023805581
223	0x3bf3e6e3	0.0074432953
224	0x3bc17fb7	0.0059051174
225	0x3c80c842	0.01572049
226	0x3d0e3c0f	0.034725245
227	0xbbdcb7ee	-0.0067357933
228	0x3cac73c0	0.021051288
229	0x3c8c9f87	0.017165912
230	0x3cdb3376	0.026757937
231	0xbcbd5e70	-0.02311632
232	0xbc9270a0	-0.01787597
233	0xbcc4378e	-0.023952272
234	0x3cd4825b	0.025941065
235	0x3b70491d	0.0036664673
236	0x3d07f805	0.033195514
237	0xbbb105f5	-0.0054023215
238	0xba92460e	-0.0011159794
239	0x3ba22582	0.004948319
240	0xbbea9765	-0.007159161
241	0x3c95403f	0.018219111
242	0x3c9adef5	0.018905142
243	0xbc4e20c9	-0.012581059
244	0xbbc1e58e	-0.0059172576
245	0x3d154ad9	0.036448333
246	0xb928c9d2	-0.00016096912
247	0xbc001ba1	-0.007819087
248	0x3c524d29	0.012835779
249	0xbc863f5a	-0.01638763
250	0x3cef9bcd	0.029249096
251	0xbbd12888	-0.0063830055
252	0xbc17d7f2	-0.009267794
253	0x3bf92d4d	0.007604277
254	0x3c9ac909	0.01889469
255	0xbba38c99	-0.004991126

decoder.5.conv.conv.bias f4 [24]
0	0xbd5cb265	-0.053881068
1	0xbcea936a	-0.028634746
2	0xbccbdbe4	-0.024885125
3	0x3c8c70b8	0.017143592
4	0xbcec9ec7	-0.028884305
5	0xbcac0412	-0.020998035
6	0x3c84f1de	0.016228613
7	0xbcad6541	-0.021166446
8	0xbcda2f10	-0.02663377
9	0xbcf4c0fb	-0.029877177
10	0x3c6e68f7	0.014551393
11	0xbc0edf5d	-0.008720246
12	0x3c761e56	0.015021881
13	0xbc9eaff5	-0.019371012
14	0xbbe6f9f5	-0.00704884
15	0x3c7469df	0.01491782
16	0xbcdbfad2	-0.026852999
17	0xbcf75e06	-0.030196201
18	0xbc153577	-0.009106985
19	0xbdd1187e	-0.1020975
20	0x3c9095de	0.017649587
21	0xbcf47bdd	-0.029844219
22	0x3c3f0a24	0.011660133
23	0xbd00f181	-0.031480316

decoder.5.nonlin.total_ops f8 [1]
0	0x0000000000000000	0.0

decoder.5.nonlin.total_params f8 [1]
0	0x0000000000000000	0.0

decoder.6.total_ops f8 [1]
0	0x0000000000000000	0.0

decoder.6.total_params f8 [1]
0	0x0000000000000000	0.0

decoder.6.pad.total_ops f8 [1]
0	0x0000000000000000	0.0

decoder.6.pad.total_params f8 [1]
0	0x0000000000000000	0.0
